checkpoint.pth (torch_old, 28333 bytes, 6 tensors)

fc1.weight f4 [64, 37]
00000000: 6a47 c23e e701 18bf 73dc 03bf 3a01 5fbf
00000010: 0b13 0cc0 8f46 ce3d dd32 aa3d 6152 173d
00000020: e555 ac3d e753 bfbc 84a2 c6bd c107 c2bd
00000030: ab96 36bd e394 2cbd da1b 1b3d be77 75bc
00000040: e154 923b 878d f43b ae4c 293e 503f 343e
00000050: 5742 e13c 7142 843d e9a9 973d 3e97 c33d
00000060: 7d01 c33d 4fc6 9fbc 01b0 be3d a045 663c
00000070: 97c7 1ebb f04a 9b3d 23a1 99bd 9a2a cd3c
00000080: 7fc8 5c3d 5218 863c 2578 a83d b688 833b
00000090: d2bd 3b3c b6e2 f13d 7b5a d83d 68b3 2b3e
000000a0: 504c 263e 9123 763d 3876 0cbc fd4d a5ba
000000b0: 5f6b 0cbd bf3c 12be 8cf1 1fbc 6592 803d
000000c0: 3748 ae3d 98ac a83d 7128 f33c 5962 96bd
000000d0: 7424 df3e dd63 febe 4528 e2be 4156 0dbf
000000e0: b3da 0dc0 2682 14bd f112 22bd 4536 15bd
000000f0: c473 39bd 3c97 2cbc f8e1 1d3d 4e15 0d3c
00000100: 44fd 383d 5136 ad3d b39a cd3d 4b6e f33d
00000110: adad dd3d 47ca d03d 8292 103e 6476 c9bb
00000120: 939b ecbc 6ded 893c d0cc 0fbd 9ec0 0a3e
00000130: 0bb7 373e 005c 5abe 7a4b f93d 2857 7abe
00000140: 8ecd 0ebe 9481 783e 484e 0cbe 3519 29bf
00000150: 2ec5 9e3d 37e1 d8bc 25f0 d039 7908 fbbe
00000160: 6b47 d3be 5ae8 15bf bd98 4c3e 1edc 1b3e
00000170: 62ea 73bc 0728 b3be f229 cabd d8ea 193d
00000180: 66c8 493d 4c59 c7be ecf9 f4be 29b8 a7be
00000190: 295d d83d dad4 883e 7001 9cbe 4755 5bbf
000001a0: 1426 17bc 919b 82be 0c75 043d 48da 74be
000001b0: 00a0 04bf 2fdd 413a ca0d b23c 7fda f13e
000001c0: a5de 1dbf 0082 83be 8965 b1be 3eb2 26c0
000001d0: 8260 03be 6b44 903d 6d1f cc3d 5cfd 5f3d
000001e0: 4782 ac3d 93ba 24ba e517 5b3d 3687 13be
000001f0: 245c da3c 0b6d 8c3d b1fd 0fbc f03b a2bd
00000200: 445b 3cbd 6659 37bd effb 963d 3c8a fa3d
00000210: 4eae 12bd f752 0ebc 6795 12bd ba30 9abc
00000220: 6b38 23bc 0af3 523a 25b6 993d 3834 2d3e
00000230: fad1 2d3e 1ceb b3bc add6 c53d f825 403d
00000240: ab8a 4b3d 68b6 bfbc f3dd 8bbc 0190 50ba
00000250: b9a0 40be f540 92be f6d2 a9bc 09a4 13bf
00000260: 6094 3abe fbda 723e 0ead c9bc 418f e9be
00000270: 7325 0ebf 010d eebf 253d 543d 17a6 4b3d
00000280: c879 9bbe 213f 02bf cd5e 2dbf 7cd2 893c
00000290: c209 75be e445 fdbd 5a14 97be 845b c73d
000002a0: 14f2 d9bd c71a d1bd 7153 873d c5eb d1be
000002b0: 7a4a 603d bdfa a9bd 6d89 94be 2058 413e
000002c0: d4bc 91be bb5c 08bf 6e70 8dbd 4921 32bd
000002d0: 6548 9bbe 55fb 753c 1c63 d8bd 183d a43d
000002e0: f79c 1bbd 30fe fa3c 8b62 1abe 5855 c03c
000002f0: d6b3 813d b9c8 fd3d 2f6a 9a3e 288b 353d
00000300: 173a ecbe 0c43 17bf 7802 01c0 1173 8bbd
00000310: 735c 74bd ade6 e9bd a243 fb3d 0e21 233e
00000320: 8a26 e9bc dfde 41bd 0197 30bc 3cd9 6c3d
00000330: c091 9fbd 1c76 af3d 1957 cb3d c3a3 a43d
00000340: 4ea9 4b3d 0f30 213e acc2 08be 1e0c 243e
00000350: b378 ca3c d192 253e c4b5 2d3e b953 d7bd
00000360: 242e 813d 3cce d93c b7b6 8c3e d78a ac3e
00000370: 06aa b43c b982 ce3b ee8e f03c c18e c8bc
00000380: 4b7e afbc a15a e9bd 9f36 10bf 7509 13bf
00000390: 3c85 483d 51d3 abbc 5e90 35bd 6c82 cfbd
000003a0: 15d3 61be 022a 81bd 374e 553e 41d2 3fbd
000003b0: ce15 e93e 58f7 6fbf cb42 17bc 8ef1 3f3e
000003c0: 1591 e2bd 42c7 abbe b47f dfbe ec2b cd3d
000003d0: 19ea 863d faa1 88be 441b 523e 4b12 0cbf
000003e0: 6546 4abc 1655 9ebd 32c6 07be a9ae 91be
000003f0: bfc8 033d f23f 343e c417 85be 8824 c6be
0.3794511 -0.593779 -0.51508254 -0.87111247 -2.1886623 0.10072052 0.08310483 0.036943797
0.084148206 -0.023355437 -0.09698966 -0.09474135 -0.044577282 -0.042134177 0.03786836 -0.014982162
0.0044656848 0.0074631604 0.16533157 0.17602277 0.027497454 0.06457985 0.07405455 0.095503315
0.09521768 -0.01950374 0.09310914 0.014054686 -0.0024227852 0.075826526 -0.075014375 0.025044728
0.053902145 0.016369019 0.08226041 0.0040141 0.011458831 0.1181082 0.10564133 0.16767657
0.16240048 0.060092513 -0.008573107 -0.0012611743 -0.034282085 -0.14280985 -0.009762179 0.062779225
0.08509868 0.08236045 0.02968237 -0.07342977 0.435825 -0.49685565 -0.44171348 -0.5520974
-2.2164733 -0.03625693 -0.039568845 -0.03642871 -0.04527642 -0.010534104 0.03854558 0.008611036
0.045163408 0.08457626 0.10039272 0.11886271 0.10824142 0.10194831 0.14118388 -0.0061481465
-0.028882777 0.016836846 -0.035107434 0.1355004 0.17940919 -0.21324158 0.12172599 -0.2444731
-0.139456 0.2426818 -0.13701737 -0.6605409 0.07752453 -0.026474578 0.00039851773 -0.49029902
-0.41265425 -0.58557665 0.1998014 0.15220687 -0.014887424 -0.34991476 -0.09871282 0.03757748
0.04926338 -0.38935316 -0.47846925 -0.3275769 0.10564644 0.26724893 -0.30469847 -0.85677
-0.009225387 -0.25509313 0.032338187 -0.23911393 -0.5180664 0.00073953246 0.02173509 0.47237012
-0.61667854 -0.2568512 -0.34647778 -2.604629 -0.12829784 0.070443 0.099669315 0.05468498
0.08423286 -0.0006283905 0.053489584 -0.14407048 0.026655264 0.06856736 -0.008788512 -0.079215884
-0.045985475 -0.04476299 0.07372271 0.12233397 -0.03581076 -0.008686773 -0.035787012 -0.018822063
-0.009962182 0.000804708 0.075054444 0.16914451 0.16974631 -0.021962695 0.09660087 0.04691121
0.04969279 -0.023402408 -0.017073607 -0.00079560286 -0.18811311 -0.28565183 -0.020730477 -0.5767217
-0.18220663 0.23716347 -0.024618652 -0.45617107 -0.5552589 -1.8597718 0.051816124 0.049718942
-0.3036635 -0.5087758 -0.6772278 0.016824 -0.23929504 -0.12366846 -0.29507715 0.09734252
-0.10641876 -0.102101855 0.06607712 -0.4100019 0.054758526 -0.08299778 -0.29011098 0.18881273
-0.28464377 -0.53266495 -0.0690621 -0.043488774 -0.3032867 0.0150135355 -0.105657786 0.08019465
-0.03799149 0.030638784 -0.15076654 0.023478195 0.06333129 0.123918004 0.30159137 0.044322163
-0.4613807 -0.5908668 -2.0157757 -0.068090566 -0.05965848 -0.11420951 0.12268759 0.15930578
-0.02846076 -0.047331687 -0.01077819 0.05782436 -0.077914715 0.085674495 0.09928722 0.080390476
0.04972201 0.15740989 -0.13355511 0.16020247 0.024715757 0.16169287 0.1696387 -0.10514016
0.06307629 0.026587598 0.2748315 0.33699676 0.02205373 0.0063022044 0.02936503 -0.024482133
-0.021422526 -0.11394239 -0.56333345 -0.57436305 0.048955187 -0.020974787 -0.044327132 -0.10132298
-0.22053178 -0.063068405 0.20830618 -0.046831373 0.45524448 -0.9373679 -0.009232233 0.1874449
-0.110628285 -0.3355046 -0.43652117 0.10018143 0.06587619 -0.26686078 0.20518214 -0.5471541
-0.012345885 -0.077310726 -0.132592 -0.28453568 0.03217387 0.17602518 -0.25994694 -0.38699746

fc1.bias f4 [64]
00000000: 62b5 d83d 3852 b4bc af20 eabd f801 f3bb
00000010: 1d9e 073e 6972 9fbd 9ec1 26be 27a1 7b3d
00000020: 78ed 5b3d ac45 b5be bd22 d43d ccd5 273e
00000030: 7ea7 0c3d bbff 1dbc 81f8 e9ba 3538 12be
00000040: d47d 21bd b9ee 90bd f214 bebc ab3d a6bd
00000050: a8ac 8ebe 5628 a6bc 119b 123c 0953 69be
00000060: 3395 23be 0614 09bc 9d78 ebbc d752 67bb
00000070: b126 873e b80c e43d d4f9 25be 8ec9 42be
00000080: e7d5 723d 71e2 1bbd c1f8 31be 31ec a6bc
00000090: b90d 79bd 3d16 6b3d 331c 94bd 0b63 3abe
000000a0: 0226 fabd aacc 193b 7f70 a13c 6824 a33d
000000b0: 48ec 433c 6b45 39be c77e abbe 6325 b23b
000000c0: 36c5 d5bd bff0 163d 6dbd 1dbe 5db8 46bd
000000d0: d8fa 2fbd 5b1b 85be afbb 57be 335f aa3d
000000e0: 0dca 293e 8fef 49bc 7851 5cbe a2af 44be
000000f0: ccdc 5fbc 1e19 97bb ac05 463d 7453 30bd
0.10581471 -0.022011861 -0.11432015 -0.007416006 0.13243909 -0.07785494 -0.16284797 0.061432984
0.053693265 -0.35404718 0.10358188 0.16390151 0.03433942 -0.00964349 -0.0017850549 -0.14279254
-0.03942664 -0.07076783 -0.023203347 -0.08117231 -0.278661 -0.020282906 0.0089481035 -0.22785582
-0.15974884 -0.00836659 -0.028744036 -0.003529718 0.26396707 0.111352384 -0.16208583 -0.190222
0.059286024 -0.03805775 -0.17380048 -0.020376297 -0.060804103 0.057394255 -0.07231941 -0.18201844
-0.12214281 0.0023467937 0.019706963 0.07965928 0.011958189 -0.18092887 -0.3349516 0.0054365858
-0.104380056 0.036850687 -0.15404291 -0.048515666 -0.042963833 -0.25997433 -0.2106769 0.08318939
0.16580983 -0.012325182 -0.21515453 -0.19207624 -0.013663482 -0.0046111485 0.048345253 -0.043048337

fc2.weight f4 [64, 64]
00000000: 1800 2abe 513e 093e 5792 6a3b efb9 ddbc
00000010: 2d2d 4abd c0a9 b1bd 0cc8 eb3b 8621 65bd
00000020: f3fb 51be 0550 31be cf61 243d d81d fcbe
00000030: fd56 c9be 2815 233e 638e 483d 0dc4 f6be
00000040: 5374 013e ce03 873d cd9a c7be 5ef6 8e3e
00000050: 9363 253d b522 79bd 5afb 78be c46b 87be
00000060: 36bd b3be c64b 14be 9b27 6a3e 0da7 93be
00000070: 0f3b 7f3d e1c2 6ebe 30fc e23d 2dd7 13be
00000080: c3f0 0abe e826 193f e6d6 bbbe 12c6 abbd
00000090: 57a0 97bc 431c 5d3e 1fb1 adbc b187 91bd
000000a0: e3cd 04bc cfcc ea3e 8b04 453e b1d4 07bd
000000b0: f48b e53d a10a a3be afc6 81be 13e4 533d
000000c0: 47eb dbbc 6a9c 58bc 9523 21bf cb22 eebc
000000d0: 3c6b e6be d1db dcbe c5f4 49be f457 513d
000000e0: 1fa3 fbbe a5fd a23c 257f 58be cc2a 12bf
000000f0: baae f53d 0cde 0fbb c59a 16bf b4a5 3d3e
00000100: 659e 453e 61bc bc3e a723 9cbe 0863 283e
00000110: 8bcc 663e 7f97 85bc 9e78 a0be 3a7a 30bc
00000120: ba73 91bd 38c0 49be c9c5 52bc 9e39 0a3e
00000130: a346 afbd c523 6c3e d807 33be 9ead 183e
00000140: 4e0d f53a 3014 223e afaa 32be c1fd 3d3e
00000150: e21f 9d3c 5038 553e 4cf1 f9bd 6953 a0bc
00000160: 4176 5bbd 5532 f83d 88f5 f1bd 4ad0 1a3e
00000170: 9088 263d 87af b8be aa8f c9be 79a6 58be
00000180: 9947 f3bd dd57 213e f130 bcbd 3f0b 933e
00000190: 04ac b2be 9435 88be 9400 313e 6830 87be
000001a0: 6639 693d d52b c83e 096d b8bb 0a1b e03c
000001b0: 7980 b43d a7ec bebe 91bd c9bc a588 b13c
000001c0: 53d5 02bd ac2f e3be ef43 c1be 47e8 113e
000001d0: 3032 abbe 1ada 783e 13fe bcbd c82a a4bc
000001e0: bc1f 913e 1b0f 2abe dcc7 643d 0ae8 763d
000001f0: df30 8bbd fe4e 89bd a290 35be fc6a 033e
00000200: 9cfb 4ebe 0601 b1be cd4e 15be 1270 46be
00000210: 71c5 adbd e712 ac3d 3cc9 87bd 4499 d63a
00000220: 02f7 aabd f700 7cbe c7b3 5ebd 904b 2b3d
00000230: ad9b bcbd 7f64 863d 03b6 2ebe 86e2 843d
00000240: de56 0d3e 2b40 3d3e 3b84 a73d c34b b0be
00000250: 0a86 1a3d 0a5b 783d 164c c23c be3c 533e
00000260: 1411 173e 0ec3 703e ce28 653e dd0e b73e
00000270: 6ca0 7a3e 9c36 8e3e a1e4 b53d 4be8 82bd
00000280: dc48 d1bd f71b 4f3d 54f4 01bf c2d7 003e
00000290: 3f2c 653d 04ed ca3c c2c4 8a3e 094b 88be
000002a0: 9cc0 2b3e 560c 23bf e957 debe 2440 12be
000002b0: 3150 07be 8632 99bd 6535 31be 686f ccbd
000002c0: 032c 843d 02f5 e8bd 5af4 d73d 1069 82be
000002d0: d411 423e 36ab 433d 9a36 b2bd 9c9e 94be
000002e0: 81ab bbbc 5a26 90be 6db7 a23d 5e31 0dbd
000002f0: fc9f 47bd 72fd 23be c516 e73e dc7c 413e
00000300: dda7 9e3d 5a15 15be ca0c 753e 0f8a d63e
00000310: 7084 543d e1aa a1be 273c 2fbf 4206 1f3e
00000320: a1d7 99be 362a 4bbe 63a0 523e c992 3c3e
00000330: c959 4a3e f6dd 0dbd cbd4 b6bc 9c02 813e
00000340: e00b 8f3e 7875 95bd 3a32 cdbe bd0e b93d
00000350: 7596 543d 7f6f 6b3e 3dd9 753d a149 a8bd
00000360: dcc6 c5bd 91d8 86be 6a5f f1bd 3301 713d
00000370: 7b27 1d3e 4d2c 4a3c 99f4 063e e7e3 82be
00000380: 555c 27be bb09 053d c468 28bf 0ed2 fa3a
00000390: 9a4a 37be 5c1c ac3e 19b3 ad3e 8924 cdbe
000003a0: df80 013e 3ae3 f2bd eb94 883e 638f 26be
000003b0: 0258 8b3d 93ff 17be 45a5 453d a50d 6abf
000003c0: 921a 4bbe d25d fdbc bf71 0cbd 1dc2 f5be
000003d0: c0b2 94bd fb36 87be 3de2 2cbe 4c2c 4fbf
000003e0: bfc5 04be 229c acbe ccd0 a2bd 5d8a 313f
000003f0: d85c f9be add9 143d 49e5 d7be 8a55 a43d
-0.16601598 0.13402678 0.0035792792 -0.0270662 -0.04935949 -0.08674955 0.0071954783 -0.055940174
-0.20506267 -0.17315681 0.04013234 -0.4924152 -0.3932418 0.15926039 0.048963916 -0.4819645
0.1264203 0.065925226 -0.3898529 0.27922338 0.040378164 -0.060824115 -0.24314633 -0.26449406
-0.35105294 -0.1448203 0.22866671 -0.28838387 0.062312182 -0.23316528 0.11083257 -0.14437552
-0.13568406 0.5982499 -0.36687392 -0.08387388 -0.018509073 0.21592812 -0.021202622 -0.07105959
-0.008105728 0.45859382 0.19240014 -0.033161823 0.112083346 -0.31844047 -0.25346896 0.05173118
-0.026845587 -0.013220886 -0.6294492 -0.029069325 -0.45003688 -0.43136457 -0.19722278 0.05110927
-0.4914789 0.019896338 -0.21142252 -0.5709655 0.11996217 -0.0021952419 -0.5882991 0.18520242
0.19298704 0.36862472 -0.3049595 0.16444027 0.22538964 -0.01630759 -0.31342024 -0.010771329
-0.07102151 -0.19702232 -0.0128645385 0.13498542 -0.08558395 0.2306052 -0.17483461 0.1490998
0.0018695982 0.15828013 -0.17447923 0.1855383 0.019180242 0.20822263 -0.12204227 -0.019571023
-0.053579573 0.12118975 -0.118144095 0.15118518 0.04065758 -0.36071417 -0.3936742 -0.21157254
-0.118788905 0.15756173 -0.09189022 0.28719518 -0.34896863 -0.26603377 0.17285377 -0.2640412
0.056939505 0.3909594 -0.0056282324 0.027356643 0.08813567 -0.37289926 -0.024626525 0.021671603
-0.031941723 -0.44372308 -0.37747142 0.14248763 -0.33436728 0.24301949 -0.09228148 -0.020039931
0.28344524 -0.16607325 0.055854663 0.060279883 -0.06796431 -0.0670452 -0.17730954 0.1283378
-0.20213169 -0.34571093 -0.14580841 -0.19378689 -0.084849246 0.08402043 -0.06630179 0.0016372581
-0.08347894 -0.24609743 -0.054370668 0.04182011 -0.0920938 0.06562137 -0.1706162 0.064885184
0.13802668 0.1848151 0.08179518 -0.34432802 0.037725486 0.060633697 0.023717921 0.2062864
0.14752609 0.23511907 0.22378847 0.35753527 0.24475259 0.2777604 0.08881498 -0.063919626
-0.10218975 0.05056378 -0.5076344 0.12582305 0.0559504 0.024771221 0.2710324 -0.26619747
0.16772693 -0.636907 -0.43426445 -0.1428228 -0.13214184 -0.0748034 -0.17305525 -0.099821866
0.06453707 -0.113748565 0.10544653 -0.2547078 0.18952113 0.0477707 -0.08701821 -0.2902726
-0.022908928 -0.2815426 0.07945142 -0.03447091 -0.048736557 -0.1601465 0.4513456 0.18895286
0.07746861 -0.14558926 0.2393066 0.41902205 0.051884115 -0.31575683 -0.6845116 0.15529731
-0.30047324 -0.19840321 0.20568995 0.18415369 0.19760813 -0.034635507 -0.022318264 0.25197303
0.27938747 -0.07297796 -0.40077382 0.09036014 0.0519013 0.22991751 0.060021628 -0.082171686
-0.0965707 -0.26337102 -0.11785777 0.058839034 0.15347092 0.012339664 0.13179244 -0.255645
-0.16343816 0.032479983 -0.6578486 0.0019136088 -0.17899552 0.33615386 0.33925703 -0.40066937
0.12646817 -0.11859746 0.26676115 -0.16265635 0.068038955 -0.14843588 0.048253316 -0.9142707
-0.19834355 -0.030928526 -0.034288164 -0.4799966 -0.07260656 -0.26409134 -0.16883178 -0.80926967
-0.12966059 -0.3371287 -0.07949981 0.6935175 -0.48703647 0.036340404 -0.42167118 0.08024128

fc2.bias f4 [64]
00000000: a32f 64bd 9914 693e fe0f 9c3e 3884 39bb
00000010: 7e13 493e 9861 c4be 7a52 963d b6fe be3c
00000020: 6e76 273f c129 5c3f 8e63 bfbe f881 143f
00000030: 16f1 3e3e 3271 92bd 7f8e b7be d605 613e
00000040: 5406 5fbd fa8f c2bd 7c92 abbd 24be fa3e
00000050: daa1 cd3e 1de0 323f 0af8 ccbe a61c 86be
00000060: a1fb 39bb 04a7 1ebe d0e6 1bbd 4e03 43be
00000070: b520 aabb 3c75 ed3e 20d0 fdbc 1461 7b3e
00000080: 61de 2ebd abe9 153f 36c5 0e3f bb7d 043c
00000090: 9441 c5bd f48f 11be de35 4b3f e308 f83d
000000a0: 1946 f2be c3b8 6f3f f8f5 323f b6f2 20be
000000b0: 2cd6 243c c3b1 33be 8b87 bb3c d0e9 05bd
000000c0: 7a05 ebbc 546f 30be a552 3bbe 6598 253f
000000d0: 20ba 1d3e 7684 9fbc 6acb 363f 19f5 123c
000000e0: f8a4 19be cab1 80be dd49 1cbe b213 09be
000000f0: a0f4 213d bf98 0a3f 1816 9cbe 59f0 3e3d
-0.055709492 0.22761764 0.3048095 -0.0028307568 0.19636342 -0.38355708 0.0733995 0.023314815
0.65415084 0.8600121 -0.37380642 0.58010817 0.18646654 -0.071504965 -0.35850903 0.21974882
-0.054449394 -0.095001176 -0.08377549 0.4897319 0.40162545 0.6987322 -0.4003299 -0.26193732
-0.0028378742 -0.15493399 -0.038061917 -0.1904423 -0.0051918873 0.46378505 -0.03098303 0.24548751
-0.042692546 0.58559674 0.5576967 0.008086617 -0.09631649 -0.1421507 0.7937907 0.1211107
-0.47319105 0.936413 0.6990657 -0.15717587 0.010060828 -0.1754828 0.02289178 -0.032693684
-0.028689135 -0.17229968 -0.18293245 0.6468566 0.15403032 -0.019472342 0.71404135 0.008969569
-0.15004337 -0.25135642 -0.15262552 -0.1338642 0.039539933 0.5413932 -0.30485606 0.046615932

fc3.weight f4 [4, 64]
00000000: 0c67 ba3e 0959 b23d 37e8 463e f449 4f3d
00000010: a390 ce3d 676a 62be 47bf bc3e 21b9 05be
00000020: 7dac 3e3e f31d 813e 565d 63be 83b6 833e
00000030: 6269 033e bc8d 8c3e 11ad 98be 7fa1 f6bd
00000040: 85df c3bc fdea 563e 2c9f c0be dd99 6b3e
00000050: f393 9b3e 26da 583e 7aa4 61be 1bbf 4fbe
00000060: 7635 e4bd 6f98 9dbd 1645 a9be 3c3f bf3d
00000070: 4ec0 9c3e 9948 d63e b522 6fbf 7972 593d
00000080: db9d 473e 1bf3 773e 22c6 363e 2357 843e
00000090: 899d 9d3e 855a 8a3e 1e0a 943e 00ed 853e
000000a0: fab2 8dbe a101 983e 1c09 873e 6230 0fbe
000000b0: 4ed3 9a3d 9f07 93be f474 803d 5f0b 5f3e
000000c0: 6051 a13d f50e 853e 0927 823d ebc7 c93e
000000d0: 5a30 4f3e 2ed5 1abf 6e1c 813e fabb 183c
000000e0: ee59 dfbe 6976 c93e 4614 04bf 394e 32be
000000f0: 1126 adbe 73c9 523e fa8f e6bd a544 823e
00000100: 179d ec3e 8620 d23c 2765 963e e669 a43d
00000110: b622 113e 2d46 fdbd 0a1f 0d3f 51f8 a1be
00000120: a67f a93d 73eb 8b3e ffb2 b4be 2976 f13d
00000130: e2d7 783d 2f99 c33d 1274 76be 05c6 193e
00000140: 9e17 f1bd ca73 7c3e 9761 98bd 29d1 3c3e
00000150: 5eaa aa3e b8e1 983e 7397 86be 93c6 14be
00000160: a800 fa3d d5b2 5cbc 9f7b 9d3d 4443 cb3d
00000170: ffc4 ee3e 1983 a13e 590e a43e aebe ab3e
00000180: 09b0 8e3e 248d 4c3e 78c9 863e 926d dc3e
00000190: 0f3b 9f3e 5d9b b83d c158 a03e d5b9 4b3e
000001a0: a7c5 de3d e6b3 863e e2c6 283e b266 98be
000001b0: 572f 9b3e 20c7 a5be 1842 da3d 9400 963e
000001c0: 80ac 83bd c38c 99bd f3af 6abd b69f bb3e
000001d0: 23c6 9a3e c754 ca3d b5db 8b3e 4b71 543d
000001e0: c9d8 07be c447 533e 90d3 3cbe 62dc d6be
000001f0: c1d9 8f3d 429b 523e 7aa8 00be 3ef5 a33e
00000200: 66e9 763e 9b44 ec3d 96ec 693e 9588 f43e
00000210: d104 6c3e e330 0ebd 27ad 2c3e 7ef9 9b3d
00000220: 41a0 713e de10 813e 7b13 f2be d38a a63e
00000230: c507 373e a215 18bf 554b 81be 1cf3 893e
00000240: e54e a6bb 43af babe 7b95 cdbe a1f3 f33d
00000250: 326d 723e 248e bf3e b8f7 d6be f3f7 a33c
00000260: ed26 033e e0ff aabd 2c32 28bf 4d39 fcbd
00000270: b450 143f a546 773e 7d02 963e e468 e1bc
00000280: e875 70be 465a 913e 272e 943e d740 d43e
00000290: 0572 103f 919d 9d3e b1b5 883e c529 213c
000002a0: 1392 7b3d 058d 9a3e f65a 8f3e 4bfb 363e
000002b0: 52d6 933e d1c7 3fbe a5fc 13bd b0f1 ce3e
000002c0: 5e1c 8c3e b9da 14be b612 d0be 6263 da3e
000002d0: 72e4 733d cd11 253e 1af4 6e3e ae17 6bbd
000002e0: 96a4 12bf 5c5d ca3e c454 99be 600a 90be
000002f0: 798d d5be 8f78 203e 335b b2bc 5a60 9ebc
00000300: e4d4 a1be 0fa3 8d3e 3ed6 0d3e b94d debc
00000310: 975a 74be 2bde 9cbd 3012 0d3e 449b 1ebf
00000320: 07cf 833e b299 9f3e af0c 82bd 0215 cb3d
00000330: b3ef 3f3e b97f 513e 9657 0fbe b213 073e
00000340: cf24 053e 5c58 5d3e 46c4 7abe bca0 3d3e
00000350: 0a58 6c3e 3e5a cd3e 3443 b9be 4a1b 793e
00000360: d9c2 40be 615d 2ebe 9523 cb3d 78b6 dc3e
00000370: 7718 a13e 8e51 9d3d 7a62 c73e df7c 2f3e
00000380: af87 613e 07fd ac3e 2c99 823d 3c98 e73e
00000390: e188 5a3e 1456 87bd 2584 c23e f4b3 b13e
000003a0: 4da4 05bf 69ae 9e3e 5f4d 8e3e 2174 67be
000003b0: 6e41 123f 45f7 90be a583 c03e 044b b73c
000003c0: 214e babd 2748 e9be 1c2b 96be 9653 fe3e
000003d0: 78e8 1e3d 3d14 d33c 65a2 4a3e c373 f93e
000003e0: c1ec af3d 13fc 19be e74a e6be 1d2f 4dbe
000003f0: e556 30bf 63c9 1e3e ac38 23be 3a1c f33e
0.36406744 0.08708388 0.1942452 0.050607637 0.10086181 -0.22110902 0.36864683 -0.13058902
0.18620487 0.25218162 -0.22203574 0.25725183 0.12833169 0.27451885 -0.2981954 -0.12042522
-0.023910293 0.20988078 -0.37621439 0.23007913 0.30386314 0.21176967 -0.22035399 -0.20287745
-0.11143009 -0.0769509 -0.3306052 0.09338233 0.30615467 0.41852263 -0.93412334 0.053087685
0.19493811 0.24213831 0.17849019 0.2584773 0.30784252 0.27022186 0.2891397 0.2615738
-0.2767561 0.29688743 0.26374137 -0.139833 0.075598344 -0.28716752 0.06272307 0.21781681
0.07876849 0.25987974 0.063551016 0.39410338 0.20233288 -0.60481536 0.25217003 0.009322161
-0.43623298 0.39348152 -0.51593435 -0.17412652 -0.33818105 0.2058466 -0.1125793 0.25442997
0.462136 0.025650274 0.29374048 0.08028011 0.14173397 -0.123669006 0.55125487 -0.31634763
0.082763 0.2732807 -0.35292813 0.117901154 0.060752757 0.09550702 -0.24067715 0.15016945
-0.11772083 0.24653545 -0.07440489 0.18439163 0.33333105 0.2985971 -0.26287422 -0.14528875
0.122071564 -0.013470371 0.076895945 0.09924939 0.4663467 0.31545332 0.32042196 0.33543915
0.2786868 0.19975716 0.26325583 0.43052346 0.31099746 0.09014008 0.31317714 0.19895108
0.10877543 0.26309127 0.16482118 -0.2976585 0.30309555 -0.32378483 0.10657138 0.29297316
-0.06429386 -0.07497551 -0.057296705 0.36645287 0.3022929 0.09879451 0.2731606 0.051865857
-0.1326629 0.20632845 -0.1844008 -0.41965014 0.07023955 0.20567039 -0.12564269 0.32023042
0.24112472 0.11536523 0.22844157 0.47760454 0.23048712 -0.03471459 0.16862927 0.07615946
0.23596288 0.2520818 -0.47280487 0.3252779 0.17874058 -0.5940801 -0.25252786 0.2694329
-0.005075323 -0.3646184 -0.40153107 0.11911703 0.23674467 0.37413132 -0.4198587 0.020015692
0.12807818 -0.083495855 -0.65701556 -0.12315617 0.57935643 0.24148043 0.29298773 -0.027515836
-0.23482478 0.28389186 0.2894146 0.4145572 0.5642398 0.30784276 0.2670112 0.009836619
0.061418604 0.30185714 0.27999085 0.17869298 0.2887445 -0.18728568 -0.036129612 0.40418768
0.27365392 -0.14536561 -0.40639275 0.42653948 0.059544034 0.16120072 0.23335305 -0.05739563
-0.5728239 0.39524353 -0.29947484 -0.28132915 -0.41709498 0.1567099 -0.021772003 -0.019333053
-0.31607735 0.27663466 0.13851258 -0.02713667 -0.23862682 -0.07659563 0.13776469 -0.61955667
0.25743887 0.31171948 -0.063500755 0.09916116 0.18743782 0.20458879 -0.13998255 0.13191107
0.13002323 0.21615738 -0.24488935 0.18518347 0.23080459 0.40107912 -0.36184084 0.24326816
-0.18824328 -0.17027809 0.09918896 0.43107963 0.31463978 0.07681571 0.3894232 0.17137478
0.22024415 0.33786795 0.063768715 0.45233333 0.21341278 -0.06608215 0.37991443 0.34707606
-0.5220383 0.3099244 0.27793404 -0.22602893 0.5713109 -0.28313652 0.37600437 0.022374637
-0.09096933 -0.4556286 -0.29329765 0.49673146 0.03879592 0.025766486 0.19788511 0.48721132
0.08590079 -0.15037565 -0.4497902 -0.20037504 -0.6888259 0.1550651 -0.15939587 0.47482473

fc3.bias f4 [4]
00000000: bff9 233f 5608 043f 252c dd3e a6cb e33e
0.6405296 0.5157522 0.43197742 0.4449131
